listening-comp/backend/models/asl_model.tflite (tflite, 73404 bytes, 3 tensors)

arith.constant f4 [26, 64]
0.038652122 0.12348646 0.11123803 -0.25647122 0.18828833 0.14256471 0.06252909 -0.14100829
0.05144292 0.025732875 0.16569701 0.091089636 0.20326838 -0.069867834 0.2503359 -0.01937373
0.0038927794 0.17939386 -0.17908661 0.07076213 -0.17902634 -0.16149348 -0.21214284 0.19068146
-0.21872595 -0.0886213 0.14669701 -0.17768773 -0.24376443 -0.2540064 -0.090078354 0.11453867
0.0439578 0.14218101 -0.21838337 0.025395215 -0.069576174 -0.16226777 0.013670862 0.19268748
0.09857866 -0.1001731 0.24776462 -0.032926098 0.18240607 -0.1256611 -0.09913078 -0.06360233
-0.11206792 0.19465414 0.032988697 0.1528529 -0.10152896 -0.05372949 -0.19486429 0.13154083
-0.20627642 -0.022571802 -0.2533961 0.10969794 -0.17940357 -0.21186195 -0.114810094 -0.1991671
-0.057215407 -0.07119912 -0.113542825 0.06923944 -0.124017164 -0.25759295 0.041837424 0.24202827
-0.10526419 0.0475685 0.20826262 -0.03523624 -0.0833105 0.035660446 -0.15158463 0.15921345
-0.1071087 -0.09418504 -0.16868338 -0.123935595 0.05775398 -0.10341562 0.24321952 0.09534994
-0.2116572 0.1844512 -0.023072287 0.23681456 0.03471759 0.23680729 -0.16872758 -0.13525876
0.053031206 -0.12183507 -0.071138546 -0.095820114 -0.19746813 0.19093847 0.11204982 0.025369734
-0.09856419 0.20789894 0.15381604 -0.066627964 0.07008472 0.14046496 0.050354004 -0.18143615
-0.0055912435 0.018511772 0.24126858 -0.25326374 -0.09905501 -0.1305517 0.19063306 -0.048504993
-0.24582693 0.04321581 -0.2556848 -0.031170294 0.22100604 0.20669836 -0.09147562 0.10186267
-0.07959139 -0.18306625 -0.14441906 0.11578581 0.10101166 0.15255296 -0.02824007 0.21157199
0.08183184 -0.13414781 0.020644248 -0.111303166 -0.1562852 -0.06657325 0.18323609 -0.21528089
0.07421571 -0.08722901 0.23671538 0.1177946 0.2265243 0.03840679 -0.038076773 -0.13785818
-0.18339965 0.21117365 0.12649387 0.042601377 -0.021925807 -0.10342036 0.054404855 -0.13148025
0.08873075 -0.05622393 -0.08739793 0.06830326 -0.10565792 -0.13154261 -0.0186629 0.043875366
-0.21741301 -0.067352146 0.12851709 0.24600288 0.078936845 -0.21534929 0.15739596 0.023879021
-0.047495186 -0.041174263 0.21284074 0.10872999 -0.1659172 -0.050051436 -0.027424783 -0.15845972
-0.1624341 0.1115579 0.08896032 0.04430738 0.23060033 0.15891474 0.17685023 0.08536264
-0.14942014 -0.12222092 -0.13283591 0.20578617 0.019560754 0.12061304 -0.18652964 0.19719696
0.23616904 -0.24720444 0.24140069 0.040875256 0.108573765 -0.23525372 0.11623815 0.09275514
0.10381219 0.17096531 -0.06988409 0.038552135 -0.071504146 -0.25192735 0.031992555 -0.006919414
0.2354773 0.13232806 -0.17990571 -0.09629455 -0.12064266 -0.24357896 -0.21126014 0.08395615
0.14198834 -0.13006827 0.064207315 0.031018555 -0.16326104 -0.12908313 -0.014039546 0.13874015
0.24687722 0.0058151484 -0.00802514 -0.22207694 -0.14922136 0.110670954 -0.014165565 0.10006192
0.08123964 -0.23732802 -0.0073982775 0.16168666 -0.060183316 -0.06620407 -0.0024371445 -0.14413834
0.14890859 0.041374505 0.16361943 -0.09717393 -0.07603598 0.058750033 -0.18059869 -0.24156375
00000000: b051 1e3d 78e6 fc3d c4d0 e33d 3250 83be
00000010: a8ce 403e 7cfc 113e 400f 803d 7a64 10be
00000020: d0b5 523d c0cd d23c 7aac 293e 348d ba3d
00000030: 9625 503e de16 8fbd 072c 803e a8b5 9ebc
00000040: 001e 7f3b 06b3 373e 7b62 37be bceb 903d
00000050: ae52 37be 8c5e 25be f93b 59be 0042 433e
00000060: b2f9 5fbe 167f b5bd be37 163e c6f3 35be
00000070: 629d 79be 200d 82be 007b b8bd 4093 ea3d
00000080: 180d 343d e697 113e e49f 5fbe a009 d03c
00000090: f47d 8ebd 8629 26be c0fb 5f3c de4f 453e
000000a0: 9ce3 c93d 8e27 cdbd 02b6 7d3e 84dd 06bd
000000b0: a8c8 3a3e 4ead 00be 1405 cbbd f041 82bd
000000c0: de83 e5bd 6a53 473e 281f 073d 7885 1c3e
000000d0: 6aee cfbd 7413 5cbd 818a 47be a4b2 063e
000000e0: 203a 53be 80e8 b8bc 22bd 81be 50a9 e03d
000000f0: 92b5 37be 57f2 58be 8e21 ebbd 76f2 4bbe
00000100: b45a 6abd d8d0 91bd 2489 e8bd 68cd 8d3d
00000110: b6fc fdbd 39e3 83be b85d 2b3d 42d6 773e
00000120: c094 d7bd 30d7 423d cc42 553e e053 10bd
00000130: b29e aabd b010 123d 0039 1bbe da08 233e
00000140: ce5b dbbd 16e4 c0bd 56bb 2cbe f2d1 fdbd
00000150: 708f 6c3d 92cb d3bd 8a0e 793e d446 c33d
00000160: aabc 58be c6e0 3c3e 1802 bdbc 847f 723e
00000170: 0834 0e3d 9c7d 723e ecc6 2cbe 4681 0abe
00000180: 4037 593d aa84 f9bd 16b1 91bd 563d c4bd
00000190: 1635 4abe 6085 433e 607a e53d 30d4 cf3c
000001a0: 06dc c9bd 76e3 543e f481 1d3e 3e74 88bd
000001b0: 9488 8f3d 0cd6 0f3e 0040 4e3d 66ca 39be
000001c0: c036 b7bb 00a6 973c 1c0f 773e c9ab 81be
000001d0: 5add cabd 58af 05be 5035 433e 2cad 46bd
000001e0: 0eba 7bbe 1003 313d 1ee9 82be d858 ffbc
000001f0: 684f 623e bca8 533e 9257 bbbd 609d d03d
00000200: d000 a3bd b875 3bbe 97e2 13be 1c21 ed3d
00000210: 34df ce3d d836 1c3e b857 e7bc 54a6 583e
00000220: 7497 a73d 0b5e 09be 201e a93c eaf2 e3bd
00000230: 3a09 20be 8e57 88bd 3ea2 3b3e 9872 5cbe
00000240: 68fe 973d 20a5 b2bd 8465 723e 4c3e f13d
00000250: fcf5 673e 7050 1d3d 64f6 1bbd b22a 0dbe
00000260: 1ecd 3bbe e83d 583e 9c87 013e c87e 2e3d
00000270: c09d b3bc 0ece d3bd a0d7 5e3d c2a2 06be
00000280: 78b8 b53d 104b 66bd b0fd b2bd 94e2 8b3d
00000290: 2e63 d8bd 1bb3 06be f0e2 98bc a8b6 333d
000002a0: 84a1 5ebe ecef 89bd fc99 033e 2ee8 7b3e
000002b0: a4a9 a13d 8684 5cbe 682c 213e f09d c33c
000002c0: 508a 42bd 58a6 28bd ecf2 593e d4ad de3d
000002d0: 33e6 29be bc02 4dbd f0a9 e0bc 4443 22be
000002e0: 2055 26be 7878 e43d d430 b63d a87b 353d
000002f0: 7e22 6c3e 8cba 223e 3a18 353e 9cd2 ae3d
00000300: 9801 19be f64e fabd 2306 08be 9cb9 523e
00000310: e03d a03c f803 f73d a001 3fbe 00ee 493e
00000320: 4cd6 713e 2923 7dbe be31 773e d06c 273d
00000330: ec5b de3d 5ae6 70be 440e ee3d 68f6 bd3d
00000340: 7c9b d43d 8811 2f3e 641f 8fbd d8e8 1d3d
00000350: c470 92bd 9ffc 80be a00a 033d 40bc e2bb
00000360: f620 713e 0281 073e 3439 38be 1436 c5bd
00000370: 8013 f7bd c36c 79be 9454 58be 34f1 ab3d
00000380: 6465 113e 9e30 05be 207f 833d a01a fe3c
00000390: e72d 27be 5e2e 04be 2006 66bc e611 0e3e
000003a0: 62cd 7c3e 008d be3b e07b 03bc 2368 63be
000003b0: 7ccd 18be 74a7 e23d b016 68bc 44ed cc3d
000003c0: f860 a63d 1e06 73be 406d f2bb 3091 253e
000003d0: c882 76bd 0096 87bd 80b8 1fbb 0099 13be
000003e0: 7e7b 183e 5078 293d da8b 273e 2003 c7bd
000003f0: c0b8 9bbd e0a3 703d ddee 38be 7d5c 77be

arith.constant1 f4 [64, 128]
0.16675906 0.077576205 -0.09065504 -0.1427569 -0.11273329 0.09582032 0.106453374 -0.07970601
0.024192676 -0.1046451 -0.060246646 0.097434565 -0.077142894 -0.06742644 0.031381696 -0.043652087
-0.17538442 0.14865603 0.04558249 -0.03207822 -0.0036089867 -0.068062946 -0.14173019 0.099837825
0.14456509 -0.01916793 -0.1708889 0.09803833 0.012972161 0.16924049 -0.099114 0.12747563
0.17126583 0.114304855 -0.13201058 0.12844776 0.13382097 0.09641202 -0.019624874 0.17122369
0.018483713 0.17240961 -0.17389418 0.061639592 -0.11943814 -0.06243798 -0.11829221 0.093276754
0.0057504773 -0.14117892 0.13524531 -0.16540489 0.058104992 -0.096251644 -0.01937288 -0.1363027
-0.008832544 -0.01737243 0.11415814 -0.08357286 -0.026652649 -0.108249165 -0.06692275 0.057570487
-0.07907288 0.086187646 0.079273 -0.15190431 0.16500448 0.024551883 -0.15678704 -0.12210865
-0.050939232 -0.16275533 -0.052503385 0.074066296 -0.09844956 0.03454642 0.14036034 -0.08138443
0.010544673 0.1433462 -0.11106963 0.024603859 -0.12151627 0.07153778 -0.1486602 -0.10401358
0.13998662 0.16994773 0.10877578 0.025630936 0.15999226 0.1430134 0.02400288 0.083201334
-0.0369855 -0.1310166 0.08870934 0.044353828 -0.13229474 0.07478373 -0.069695964 -0.10957228
0.012165725 -0.11911787 0.07725479 0.11531307 -0.0833126 -0.14801383 0.04762505 -0.024231017
-0.13210762 -0.10878645 -0.1260898 -0.01620239 -0.096104674 -0.050609633 0.056036636 -0.12188148
0.015691489 -0.1550655 0.0948288 -0.17138484 0.17403574 -0.14823999 0.14897107 -0.09728588
0.041870624 -0.0046924204 0.15035756 -0.15308097 0.07337336 -0.136487 -0.13962707 -0.17040785
0.039794803 0.037852585 -0.0854242 0.14760049 0.114778176 -0.065375745 -0.12652256 -0.1590507
0.15559532 0.051725432 0.15555175 -0.08356405 0.1084543 -0.025645182 0.17050578 -0.14597106
0.16769578 -0.07883264 -0.16658777 -0.10332565 -0.0391728 -0.08178963 0.11839689 -0.037016064
0.09481664 0.05848962 0.09373976 -0.0037025213 0.11244543 -0.15145373 -0.08706557 -0.1579454
-0.14006206 -0.1688332 0.055208877 0.066744044 -0.053894393 -0.1592439 0.033908486 0.123774156
-0.12500566 -0.0824775 0.062514186 0.12778653 -0.046157077 -0.12771511 0.13529657 -0.032906026
0.12318511 -0.1735232 0.07540022 0.090416804 0.1037951 0.08399202 -0.05229509 0.029514939
0.011765376 0.020046934 -0.0007457882 -0.026544929 0.00026236475 -0.15104406 -0.114197515 0.0050789863
-0.003696993 0.1558588 0.1009139 -0.019530013 0.12965648 -0.0806504 -0.16260515 0.0028645992
-0.039449662 0.07679008 -0.12785739 -0.07374636 -0.07448326 0.107914105 0.11122827 0.014931232
-0.14858037 -0.033655643 0.09927727 0.09076981 0.010326996 -0.15343311 0.15383999 -0.049523175
0.14079045 0.10126804 -0.1311843 0.027814135 0.084190175 0.15517442 -0.16759542 -0.094657734
-0.0803179 0.049576163 -0.17466712 0.16772313 -0.125611 -0.14109543 0.068736404 0.03191419
0.16383143 0.1033109 0.015008837 0.043007016 -0.026726454 0.08348481 0.015934423 -0.09264286
-0.024421692 -0.14819801 0.08640133 0.06588964 -0.09548373 -0.006441891 0.0125489235 -0.028321251
00000000: e3c2 2a3e 46e0 9e3d 5aa9 b9bd dd2e 12be
00000010: b6e0 e6bd 723d c43d 3a04 da3d e83c a3bd
00000020: b82f c63c 2c50 d6bd 30c5 76bd c68b c73d
00000030: 18fd 9dbd e016 8abd 188a 003d 88cc 32bd
00000040: f997 33be 4939 183e b4b4 3a3d 7464 03bd
00000050: c084 6cbb 9664 8bbd b821 11be c677 cc3d
00000060: df08 143e 1006 9dbc 80fd 2ebe 52c8 c83d
00000070: 3089 543c 614d 2d3e 48fc cabd f988 023e
00000080: 4f60 2f3e aa18 ea3d c82d 07be cf87 033e
00000090: 5d08 093e aa73 c53d 58c4 a0bc 4355 2f3e
000000a0: 286b 973c 258c 303e 5111 32be cc79 7c3d
000000b0: fc9b f4bd f8be 7fbd 3043 f2bd e207 bf3d
000000c0: 806e bc3b 3591 10be bf7d 0a3e e65f 29be
000000d0: 80ff 6d3d 951f c5bd e0b3 9ebc ef92 0bbe
000000e0: 60b6 10bc a050 8ebc becb e93d 3f28 abbd
000000f0: a856 dabc bdb1 ddbd cb0e 89bd 08cf 6b3d
00000100: f6f0 a1bd 2683 b03d e259 a23d ce8c 1bbe
00000110: eff6 283e 0821 c93c c88c 20be 1a14 fabd
00000120: a8a5 50bd 55a9 26be ca0d 57bd 12b0 973d
00000130: ec9f c9bd 8c80 0d3d 9fba 0f3e e1ac a6bd
00000140: 90c3 2c3c 59c9 123e 7978 e3bd 088e c93c
00000150: 86dd f8bd 6682 923d 613a 18be 1205 d5bd
00000160: a758 0f3e c706 2e3e d6c5 de3d f8f7 d13c
00000170: 03d5 233e 1b72 123e b0a1 c43c 7665 aa3d
00000180: 1c7e 17bd 3729 06be 3ead b53d 5cac 353d
00000190: 4678 07be 3628 993d c2bc 8ebd 6e67 e0bd
000001a0: c052 473c 12f4 f3bd c237 9e3d 4229 ec3d
000001b0: cc9f aabd f090 17be 7c12 433d 2080 c6bc
000001c0: 3847 07be 6ecb debd af1d 01be e0ba 84bc
000001d0: 87d2 c4bd 0c4c 4fbd ac86 653d ff9c f9bd
000001e0: 708b 803c 7ec9 1ebe 9a35 c23d 827f 2fbe
000001f0: 6d36 323e 39cc 17be df8b 183e d23d c7bd
00000200: 8880 2b3d e0c2 99bb 55f7 193e 42c1 1cbe
00000210: c644 963d 40c3 0bbe 66fa 0ebe 657f 2ebe
00000220: e0ff 223d 500b 1b3d e2f2 aebd 9524 173e
00000230: d210 eb3d b8e3 85bd 218f 01be 30de 22be
00000240: 6154 1f3e 0cde 533d f548 1f3e a123 abbd
00000250: 4a1d de3d d815 d2bc 1199 2e3e 7079 15be
00000260: 71b8 2b3e 0273 a1bd fc95 2abe 669c d3bd
00000270: a873 20bd 5281 a7bd 127a f23d 289e 17bd
00000280: 3a2f c23d d092 6f3d a2fa bf3d 00a6 72bb
00000290: ca49 e63d b016 1bbe 6f4f b2bd 70bc 21be
000002a0: 6e6c 0fbe 9ce2 2cbe b422 623d 1ab1 883d
000002b0: 5ec0 5cbd d510 23be a0e3 0a3d 4e7d fd3d
000002c0: 7c01 00be f7e9 a8bd 7007 803d 79da 023e
000002d0: 340f 3dbd c0c7 02be 2f8b 0a3e 78c8 06bd
000002e0: 7a48 fc3d 11b0 31be 6e6b 9a3d 722c b93d
000002f0: 8692 d43d 0204 ac3d 6033 56bd 50c9 f13c
00000300: 90c3 403c 7839 a43c 0081 43ba c074 d9bc
00000310: 008e 8939 4bab 1abe 63e0 e9bd a06d a63b
00000320: 4049 72bb 7399 1f3e f2ab ce3d 68fd 9fbc
00000330: abc4 043e 092c a5bd f781 26be 00bc 3b3b
00000340: f895 21bd 1e44 9d3d 0ced 02be 5508 97bd
00000350: ae8a 98bd 1202 dd3d a6cb e33d 20a2 743c
00000360: 7425 18be 80da 09bd e251 cb3d 86e5 b93d
00000370: 9032 293c 921d 1dbe 3b88 1d3e d0d8 4abd
00000380: 5f2b 103e 9e65 cf3d 2d55 06be 78da e33c
00000390: e66b ac3d 0be6 1e3e 229e 2bbe eadb c1bd
000003a0: b67d a4bd 6010 4b3d f0db 32be 9dbf 2b3e
000003b0: 2ca0 00be 527b 10be acc5 8c3d 74b8 023d
000003c0: 6dc3 273e aa94 d33d a0e7 753c 2028 303d
000003d0: 70f1 dabc 16fa aa3d e888 823c 8abb bdbd
000003e0: 0010 c8bc 38c1 17be 2ef3 b03d 26f1 863d
000003f0: f98c c3bd 8016 d3bb 009a 4d3c f801 e8bc

sequential_1/dense_1/MatMul f4 [128, 63]
-0.020116165 0.172243 -0.032330513 0.068707064 0.116147816 -0.109156854 0.14558327 0.029851928
-0.15876281 -0.13388702 0.113068074 -0.10447139 -0.15932398 -0.026435405 -0.04207626 -0.009738296
-0.09637051 0.07589215 -0.16888037 -0.17497054 -0.047146633 -0.0021680444 -0.12844211 0.04845208
-0.1556409 0.06550792 -0.14227627 0.09087679 0.13238811 -0.14604014 0.0467602 0.08960849
-0.0795293 0.12961733 0.0073511153 0.10552764 0.018508956 -0.17333034 -0.09191218 0.048680365
0.03079857 0.17231432 0.12840953 -0.17367582 0.15827739 0.10301015 0.015835226 0.12248942
-0.09316083 0.1603862 0.15021095 -0.1084564 -0.17698464 -0.07452848 -0.10126966 -0.06580967
0.088523954 -0.17010604 0.14929348 -0.01285176 0.071474135 0.080656886 -0.10718818 -0.057945
-0.02001509 -0.061794236 0.13334465 -0.16747549 -0.025667727 -0.038497 -0.14588092 0.012150243
-0.13706492 0.11706057 0.15576091 0.06938115 -0.097482204 0.07178126 0.05244352 -0.16793305
-0.14686711 0.12928325 0.09628278 -0.030150816 -0.12077378 0.10203725 0.061527804 -0.13933231
-0.0033719838 -0.17319672 -0.03064704 0.12661251 0.059402496 0.17298588 -0.15847614 -0.05753676
-0.09714833 0.06002523 0.17246684 0.14711976 0.122264475 -0.16620182 -0.10963161 0.07572892
-0.0877259 -0.1043049 -0.0286766 -0.007547438 0.029092401 0.035048366 0.11704725 -0.10335893
0.07758093 0.050859347 -0.0076750964 -0.12826307 0.03340237 0.021576226 0.09956297 -0.13800532
0.013501763 0.008881882 -0.09953915 0.022960871 -0.056042038 0.057329267 0.15528959 -0.14395505
-0.12568553 -0.1467479 -0.053780444 -0.12639025 0.0960283 0.13625804 -0.117759705 0.14644673
0.089841545 0.13473025 0.12363437 -0.09625679 -0.14405534 -0.15283068 -0.04662308 -0.028356925
0.026332006 -0.05620765 -0.0054381043 0.1555014 0.04366626 0.15570655 0.04414241 0.070264325
-0.13116321 0.091389716 -0.041414008 0.16215453 0.008111492 0.10319325 0.026694655 -0.119833305
-0.17278166 0.09657124 0.0008673668 -0.104443505 0.012257248 -0.0005277097 0.11693916 -0.1733169
0.007869616 0.046622857 0.04035023 -0.05821891 -0.1748308 0.11630598 -0.16163726 -0.032143235
0.10742587 -0.061921008 -0.17129163 0.12708381 0.118977845 0.15812072 -0.07258292 0.06866358
-0.06765647 0.10198143 0.045340195 0.1584791 -0.02675213 0.0013862848 0.08807823 -0.10422402
0.13558078 0.06474568 0.15819538 -0.15283199 0.156403 -0.10373849 0.09831259 -0.068460666
0.17370722 0.06078708 0.058581397 -0.15075189 0.11261681 -0.084054865 0.0772329 0.08788884
0.17461237 -0.14475659 0.019053057 0.12254286 -0.1478242 -0.03862737 -0.006025806 -0.14758392
-0.17208895 -0.09878042 0.03817159 -0.09822821 0.15701443 -0.00736697 -0.06741624 -0.12093862
0.021187633 0.051948816 -0.052137822 0.10080898 0.06550613 -0.14652757 0.11820221 -0.062612034
0.1753751 0.07500988 0.14458498 -0.09314689 0.023300573 -0.005407676 -0.11963731 0.0029167086
0.13515347 -0.056117937 0.15405029 -0.16389066 0.17294478 -0.16966479 -0.037089586 0.14222524
-0.014284313 -0.016215548 -0.02125673 0.06438379 0.0363992 0.10946128 -0.10570821 -0.107443966
00000000: a8ca a4bc 7860 303e 006d 04bd 4ab6 8c3d
00000010: e8de ed3d a18d dfbd c813 153e 088c f43c
00000020: b892 22be ae19 09be 3c90 e73d 19f5 d5bd
00000030: d325 23be 108f d8bc 2858 2cbd 608d 1fbc
00000040: e75d c5bd 586d 9b3d faee 2cbe 7a2b 33be
00000050: d41c 41bd c015 0ebb 5486 03be b075 463d
00000060: 5460 1fbe 0429 863d dfb0 11be 9c1d ba3d
00000070: c090 073e 8c8b 15be a087 3f3d a884 b73d
00000080: 42e0 a2bd 68ba 043e a0e1 f03b e01e d83d
00000090: 18a0 973c 827d 31be 743c bcbd 1065 473d
000000a0: 484d fc3c 2a73 303e ca7d 033e 13d8 31be
000000b0: 7813 223e fcf6 d23d e0b8 813c bcdb fa3d
000000c0: 1bcb bebd 483c 243e e6d0 193e 641e debd
000000d0: 763b 35be 63a2 98bd 7866 cfbd 38c7 86bd
000000e0: 0c4c b53d 4730 2ebe 64e0 183e 3090 52bc
000000f0: 0861 923d 702f a53d 7a85 dbbd bc57 6dbd
00000100: b0f6 a3bc f41b 7dbd 808b 083e b27e 2bbe
00000110: 2045 d2bc 08af 1dbd cf61 15be d011 473c
00000120: bf5a 0cbe 74bd ef3d ca7f 1f3e b417 8e3d
00000130: c0a4 c7bd 0e02 933d 04cf 563d a4f6 2bbe
00000140: 5564 16be d462 043e e82f c53d d8fe f6bc
00000150: 3e58 f7bd e8f8 d03d 9404 7c3d 21ad 0ebe
00000160: 80fc 5cbb 7b5a 31be 800f fbbc b6a6 013e
00000170: 0850 733d 3623 313e 9247 22be aaab 6bbd
00000180: b4f5 c6bd 04dd 753d 269b 303e 90a6 163e
00000190: cc65 fa3d cf30 2abe 8a86 e0bd c417 9b3d
000001a0: a3a9 b3bd cf9d d5bd 30eb eabc 8050 f7bb
000001b0: 3053 ee3c e08e 0f3d 78b6 ef3d d9ad d3bd
000001c0: c0e2 9e3d e451 503d 607f fbbb 6557 03be
000001d0: ecd0 083d a0c0 b03c ace7 cb3d 4451 0dbe
000001e0: 8036 5d3c 5085 113c 2fdb cbbd 7018 bc3c
000001f0: 568c 65bd 18d2 6a3d 3c04 1f3e f468 13be
00000200: b5b3 00be 1545 16be e248 5cbd 726c 01be
00000210: 7caa c43d 3a87 0b3e 002c f1bd 22f6 153e
00000220: d8fe b73d baf6 093e 0434 fd3d 4822 c5bd
00000230: 3e83 13be a57f 1cbe d8f7 3ebd c84c e8bc
00000240: 38b6 d73c fe39 66bd 2032 b2bb c23b 1f3e
00000250: 64db 323d 8a71 1f3e acce 343d bee6 8f3d
00000260: a64f 06be 882a bb3d bca1 29bd d60b 263e
00000270: 10e6 043c fc56 d33d c0ae da3c 2a6b f5bd
00000280: aded 30be 24c7 c53d 0060 633a 7ae6 d5bd
00000290: a0d2 483c 0056 0aba cc7d ef3d fc79 31be
000002a0: 90ef 003c 9cf7 3e3d 4846 253d f476 6ebd
000002b0: d806 33be d431 ee3d 3d84 25be a0a8 03bd
000002c0: 1802 dc3d e2a0 7dbd 1367 2fbe 4222 023e
000002d0: a8aa f33d 66ea 213e 5ba6 94bd 7e9f 8c3d
000002e0: 7a8f 8abd a4db d03d a4b6 393d 5848 223e
000002f0: 4827 dbbc 00b4 b53a 5c62 b43d 6773 d5bd
00000300: b0d5 0a3e 6299 843d f8fd 213e fd7f 1cbe
00000310: 1c28 203e d874 d4bd 1c58 c93d 1b35 8cbd
00000320: 4ee0 313e e0fb 783d 0cf3 6f3d b45e 1abe
00000330: a4a3 e63d f524 acbd 482c 9e3d 10ff b33d
00000340: 96cd 323e 123b 14be 2815 9c3c c0f7 fa3d
00000350: 3a5f 17be bc37 1ebd 2074 c5bb 3d20 17be
00000360: 1638 30be 644d cabd d059 1c3d df2b c9bd
00000370: 64c8 203e a066 f1bb 8711 8abd abae f7bd
00000380: b091 ad3c 48c8 543d 788e 55bd f074 ce3d
00000390: 1428 863d 530b 16be 0014 f23d bd3a 80bd
000003a0: 8895 333e c89e 993d 160e 143e ccc3 bebd
000003b0: d8e0 be3c e032 b1bb 6804 f5bd 4026 3f3b
000003c0: ac65 0a3e ecdb 65bd 5cbf 1d3e f4d2 27be
000003d0: 7018 313e 9bbc 2dbe 40eb 17bd 7ea3 113e
000003e0: c008 6abc 78d6 84bc 9822 aebc a6db 833d
000003f0: 5417 153d 3c2d e03d 8c7d d8bd 950b dcbd
